working/02.regression_classification/res/CNN_CNN_autodock_SPUK2/CNN_CNN_autodock_SPUK2/model.pt (torch, 443921 bytes, 17 tensors)

convd.0.weight f8 [32, 63, 4]
000000 13 dc e6 10 fb fe ab 3f 00 00 00 40 b5 78 9c bf
       0.05467972356148478 -0.027804214507341385
000010 00 00 00 c0 ab 02 89 bf 00 00 00 e0 ee 46 9e 3f
       -0.012212125584483147 0.02956746332347393
000020 00 00 00 e0 37 5d ae bf 00 00 00 a0 b8 57 a3 3f
       -0.05930494889616966 0.03777863457798958
000030 00 00 00 80 7f 8a 8a bf 00 00 00 80 93 68 a0 3f
       -0.012959476560354233 0.032047852873802185
000040 1e ab d0 cc 2c 73 a1 3f a9 8a 56 98 da 90 74 bf
       0.034081840516895875 -0.005020955931658002
000050 10 e5 78 0e 8b 7a 66 bf 18 31 83 74 ad e3 7e 3f
       -0.002743980021275967 0.007541348990525408
000060 ff 0b 30 c8 e1 14 88 bf 5b 00 f2 fc 27 72 b3 bf
       -0.011758579179518945 -0.07596063542769242
000070 d7 2f c0 0e 18 fd 9e 3f 3b 6b 8d 18 e3 3b 72 bf
       0.030262351894677266 -0.004451644032850417
000080 6c 25 d5 a5 9c 22 b6 bf af d1 2e 94 5d 27 95 bf
       -0.08646563576362148 -0.020657980126729644
000090 26 ed d7 1a b6 c5 b2 3f 0a d6 e0 0d 4f 48 a9 3f
       0.07332933574064224 0.04937979740536143
0000a0 3c e2 71 3c 51 24 af bf 0b 10 b3 38 85 e4 ac bf
       -0.06082395422794604 -0.05643097226268886
0000b0 3a 44 4a eb 56 dd b1 bf 48 cd cf ad 99 35 77 3f
       -0.06978362316500944 0.0056663516124787
0000c0 00 00 00 a0 bb ab 94 bf 00 00 00 e0 8c b5 68 3f
       -0.02018635906279087 0.0030162574257701635
0000d0 00 00 00 60 15 3a a3 3f 00 00 00 00 da 87 a1 3f
       0.03755251690745354 0.03423959016799927
0000e0 00 00 00 20 67 87 af bf 00 00 00 e0 88 fe a3 3f
       -0.06157991662621498 0.039051320403814316
0000f0 00 00 00 e0 47 05 92 3f 00 00 00 a0 fe 97 ae 3f
       0.017598269507288933 0.05975337699055672
000100 85 eb f9 e9 e8 8b a0 3f 60 61 ef 2c 9b 6a a4 bf
       0.03231742721705814 -0.03987584041141434
000110 a9 7e 2a 31 95 2d c3 bf 89 fd 2f dd a9 57 92 3f
       -0.14982857609446867 0.017912534833155944
000120 fc 89 4e 46 6b fb bd 3f 99 77 9f a1 ce a8 98 bf
       0.11711760012125433 -0.024081448187522978
000130 ac 39 86 91 ae 22 ab 3f 24 dd a1 06 9d 88 b0 bf
       0.052998976959418215 -0.0645845547859279
000140 56 52 4f 22 da c6 ae 3f 45 78 85 1b f2 dc 88 bf
       0.06011087101766026 -0.012140170540700388
000150 0e 31 cd 6d 73 d5 bf 3f 25 5b ad 15 d6 87 9e 3f
       0.12435075216962252 0.029815049241132336
000160 b1 5d ad 00 e6 4e 9f bf 27 5d b3 b8 71 ef bc 3f
       -0.030574411193212195 0.11302862891476605
000170 60 7c 20 8d ab 06 92 3f 68 98 66 35 49 78 be 3f
       0.01760356949682451 0.11902291825990263
000180 7b 99 1b 7b 11 da a6 3f c8 14 f2 60 fe cd b7 3f
       0.04463247897892849 0.09298696390949879
000190 43 48 5b b4 c2 e5 aa 3f c5 07 b8 69 c3 a1 a6 bf
       0.05253418399446776 -0.044202906279692956
0001a0 00 00 00 00 66 80 a1 3f 00 00 00 60 1f 5c 8f bf
       0.034182727336883545 -0.015312428586184978
0001b0 00 00 00 20 12 10 b0 3f 00 00 00 e0 85 da a9 3f
       0.06274522095918655 0.05049532279372215
0001c0 00 00 00 40 c8 29 68 bf 00 00 00 60 3f 87 a5 bf
       -0.0029496108181774616 -0.04204748198390007
0001d0 00 00 00 e0 0d a4 a3 3f 00 00 00 80 16 05 94 3f
       0.03836100921034813 0.019550658762454987
0001e0 00 00 00 20 55 d9 a4 bf 00 00 00 40 22 f3 a4 3f
       -0.0407206155359745 0.04091746360063553
0001f0 00 00 00 a0 b1 94 a3 3f 00 00 00 e0 e0 9a ac 3f
       0.038243819028139114 0.05586912855505943
000200 00 00 00 00 68 14 a2 bf 00 00 00 a0 72 3c 85 bf
       -0.03531193733215332 -0.010369201190769672
000210 00 00 00 00 5d fe 53 bf 00 00 00 a0 d8 d7 82 3f
       -0.0012203129008412361 0.009200756438076496
000220 f1 db cc b3 f6 c5 98 3f c2 f0 a3 48 3d 08 86 bf
       0.024192671512732692 -0.010757902888592578
000230 b6 59 32 ae d5 72 b9 3f 48 8e d3 dd 6b a7 90 bf
       0.0994084883007876 -0.016263661779602395
000240 8a 7f 9d 84 9c 62 75 3f 76 3b fe 6c 04 c0 91 3f
       0.005220996283099919 0.01733405032387788
000250 2f 58 a3 1b 6f 31 aa 3f ee 52 88 40 98 bd a2 3f
       0.05115840160731044 0.03660274303198273
000260 00 00 00 60 4e 74 97 3f 00 00 00 c0 ed f9 9f 3f
       0.022904610261321068 0.031226839870214462
000270 00 00 00 40 af de ad bf 00 00 00 40 0d 3c a0 3f
       -0.058339573442935944 0.03170815855264664
000280 00 00 00 00 85 ad a6 bf 00 00 00 a0 cc 55 a8 bf
       -0.044292598962783813 -0.04752959683537483
000290 4f 1c 5f ca b4 b0 94 bf 38 c9 ac da a6 9a 99 3f
       -0.02020533070733804 0.025004012200221498
0002a0 70 51 36 24 37 04 b7 3f 94 0b b4 e1 b4 90 63 3f
       0.08990807184301786 0.002388337406615768
0002b0 b4 c8 d9 f8 ca f1 a0 bf 8a b7 54 ce c0 0e b1 3f
       -0.03309473312119007 0.06663136517883408
0002c0 00 00 00 20 4f 21 83 bf 00 00 00 00 13 24 a2 3f
       -0.009340875782072544 0.035431474447250366
0002d0 00 00 00 80 d7 bc 94 3f 00 00 00 40 8a 2f a8 bf
       0.020251624286174774 -0.04723770171403885
0002e0 00 00 00 60 13 eb 89 3f 00 00 00 60 fb fc 8e 3f
       0.012655402533710003 0.015130962245166302
0002f0 00 00 00 80 62 98 a5 bf 00 00 00 20 35 9b 9e bf
       -0.04217822849750519 -0.029888944700360298
000300 31 3f f9 e0 47 b1 8d 3f 44 10 4f a3 bd 78 ac bf
       0.014498292496824302 -0.055608678994332666
000310 98 f8 01 80 a6 18 8d bf b3 c7 e2 d2 62 e7 9c bf
       -0.014207173139080972 -0.028226417657328983
000320 00 00 00 40 39 8a ad 3f 00 00 00 80 b4 de 87 bf
       0.057695187628269196 -0.01165524497628212
000330 00 00 00 a0 17 2f a2 3f 00 00 00 20 68 ee 9b 3f
       0.03551553562283516 0.02727663703262806
000340 a3 08 f9 f9 d9 86 a6 bf 09 78 55 89 6a 86 77 bf
       -0.0439975850718082 -0.0057434236126408045
000350 6e 02 3d 37 64 b8 b5 3f 9c 36 4f 76 45 93 7f bf
       0.08484484051315075 -0.007708808266171065
000360 00 00 00 a0 a9 1b a6 3f 00 00 00 60 3d bc 8a 3f
       0.04317979887127876 0.013054351322352886
000370 00 00 00 80 1f bf 94 3f 00 00 00 40 75 17 a8 3f
       0.02026032656431198 0.04705397039651871
000380 00 00 00 40 2e 95 ae 3f 00 00 00 60 07 67 a5 bf
       0.05973190814256668 -0.04180167242884636
000390 00 00 00 20 56 21 80 3f 00 00 00 e0 aa 11 a8 3f
       0.007876084186136723 0.04700979217886925
0003a0 00 00 00 80 7c 5d a7 3f 00 00 00 c0 6a 09 a4 3f
       0.04563511908054352 0.039134345948696136
0003b0 00 00 00 a0 92 57 a7 bf 00 00 00 40 ba 39 a7 bf
       -0.045590002089738846 -0.04536230117082596
0003c0 00 00 00 40 74 81 a3 bf 00 00 00 e0 21 35 80 3f
       -0.03809703141450882 0.007913841865956783
0003d0 00 00 00 80 9c 12 b0 3f 00 00 00 00 98 5f a4 bf
       0.06278398633003235 -0.03979182243347168
0003e0 a6 9a bc 3e de f8 b1 3f b8 c5 c7 3e f2 b9 8f bf
       0.07020367652567447 -0.015491383114723742
0003f0 19 a2 78 10 e4 f6 96 bf e3 e6 d8 62 67 f7 a4 bf
       -0.022426188950847335 -0.04095004159576179
000400 27 39 1e 35 52 3a 4a bf 7c a7 c5 86 d7 43 b6 3f
       -0.000800409450890692 0.08697268524488594
000410 8c 76 d3 8f a0 8b b3 bf 06 22 9d c7 95 d4 a6 3f
       -0.07634929190995815 0.04459064542476558
000420 32 68 f1 02 96 f7 91 bf ec ea ed 76 0d 9e 86 3f
       -0.017546028070093374 0.011043648902832236
000430 7f 71 4e 7d 66 27 9d 3f 31 15 a4 c4 af 22 a0 bf
       0.028470612905594713 -0.031514637712499634
000440 00 00 00 20 89 66 a4 3f 00 00 00 e0 61 a9 90 3f
       0.03984478488564491 0.016271142289042473
000450 00 00 00 80 23 0e a6 bf 00 00 00 20 af 15 ab bf
       -0.04307661950588226 -0.052899811416864395
000460 9b 83 04 64 d9 7e b7 bf 07 21 e6 7e bd 7e a3 3f
       -0.09177931491696116 0.038076326122849884
000470 3d 7b fe 96 38 d5 93 3f cb 95 1f da 65 68 bc 3f
       0.01936806127161649 0.11096798491742914
000480 00 00 00 c0 bb f6 93 3f 00 00 00 e0 7c 36 8d bf
       0.019495900720357895 -0.014264083467423916
000490 00 00 00 a0 d1 ca 98 3f 00 00 00 e0 ea d8 94 3f
       0.02421119250357151 0.020358724519610405
0004a0 00 00 00 e0 12 b1 a3 3f 00 00 00 60 76 b8 a5 3f
       0.03846034035086632 0.04242296144366264
0004b0 00 00 00 40 59 d8 95 bf 00 00 00 e0 10 83 af 3f
       -0.02133311703801155 0.06154682859778404
0004c0 00 00 00 e0 5c d4 7d bf 00 00 00 20 b5 ba 61 bf
       -0.007282603066414595 -0.0021642243955284357
0004d0 00 00 00 20 64 71 ae bf 00 00 00 40 2f c2 a4 bf
       -0.05945885553956032 -0.04054401069879532
0004e0 00 00 00 c0 a0 d7 a2 bf 00 00 00 00 36 97 9b bf
       -0.03680136054754257 -0.026944011449813843
0004f0 00 00 00 00 4e ee a6 3f 00 00 00 20 4e 14 95 bf
       0.04478687047958374 -0.02058527059853077
000500 00 00 00 00 1f 1a a8 bf 00 00 00 20 93 d1 98 3f
       -0.04707428812980652 0.02423696406185627
000510 00 00 00 60 20 a7 94 3f 00 00 00 80 d3 e3 a4 3f
       0.020168786868453026 0.04080067574977875
000520 00 00 00 a0 a4 b0 a0 bf 00 00 00 e0 c1 f8 8b 3f
       -0.032597679644823074 0.013658060692250729
000530 00 00 00 e0 c1 7b 97 bf 00 00 00 20 57 fc 8c bf
       -0.022933034226298332 -0.014153175987303257
000540 a4 ae 13 c4 be 29 b2 bf 07 9f ef bb ce 3d b0 bf
       -0.07094948088677683 -0.0634431084469008
000550 64 42 c6 ef 0e fc a5 bf b6 57 30 49 96 cd b7 3f
       -0.04293867756780825 0.09298075949513315
000560 99 a3 34 a5 39 06 96 3f 0e 2b 26 95 90 c8 a4 bf
       0.021508122166014585 -0.04059268780391366
000570 35 4c 43 8f 02 ae b4 3f 4a 7e 05 95 e0 6c a9 3f
       0.08078018186215348 0.04965879267797087
000580 00 00 00 e0 7f ff a5 3f 00 00 00 c0 ca 6e 60 3f
       0.04296493157744408 0.0020059547387063503
000590 00 00 00 a0 f4 4f a6 bf 00 00 00 c0 bc 34 a9 3f
       -0.04357876256108284 0.04923047870397568
0005a0 00 00 00 60 6d 21 90 bf 00 00 00 60 2a dc 74 bf
       -0.015752514824271202 -0.005092778708785772
0005b0 00 00 00 a0 30 c9 ab bf 00 00 00 e0 c8 7b 89 bf
       -0.05426933243870735 -0.012443131767213345
0005c0 00 00 00 60 82 cd a4 bf 00 00 00 a0 2f a3 ad 3f
       -0.040630411356687546 0.057885635644197464
0005d0 00 00 00 80 24 e2 ab bf 00 00 00 60 00 24 a9 bf
       -0.05445970594882965 -0.049102794378995895
0005e0 b5 37 49 98 48 8b 77 bf a1 2f 8c de 1e 2f a0 bf
       -0.005748065541935012 -0.03160950152059106
0005f0 ef 5a 3a c3 ca 6c a4 3f 42 88 3c 5c 14 54 ab bf
       0.03989251740602195 -0.053375850924809246
000600 00 00 00 e0 31 4c 9e bf 00 00 00 80 4b 3a 6d 3f
       -0.029587535187602043 0.003567836247384548
000610 00 00 00 20 0d 59 a7 3f 00 00 00 40 00 b0 a6 bf
       0.04560128226876259 -0.0443115308880806
000620 a5 b4 bf da 9e 26 9a 3f ac ff 3f fe b7 ca a8 3f
       0.025537950612421274 0.04842162111890444
000630 a3 06 9a 01 1a db 96 3f c7 99 b2 86 7b a9 a3 3f
       0.022320181224592017 0.03840242404230625
000640 00 00 00 a0 d0 3e 8f 3f 00 00 00 20 45 d9 a7 bf
       0.015256528742611408 -0.0465795136988163
000650 00 00 00 e0 35 89 ab 3f 00 00 00 c0 b2 05 99 bf
       0.05378120765089989 -0.024435799568891525
000660 00 00 00 60 7b 6d a3 3f 00 00 00 20 1a ba 5e 3f
       0.03794465586543083 0.0018754248740151525
000670 00 00 00 60 77 18 74 bf 00 00 00 c0 47 77 60 bf
       -0.004906145390123129 -0.002010002266615629
000680 00 00 00 00 6a ee 85 3f 00 00 00 a0 68 68 9e 3f
       0.010708644986152649 0.029695162549614906
000690 00 00 00 60 df b0 84 3f 00 00 00 c0 87 ad 93 3f
       0.010102982632815838 0.01921665295958519
0006a0 00 00 00 c0 28 03 ad bf 00 00 00 c0 5b 7f a7 3f
       -0.05666472762823105 0.04589354246854782
0006b0 00 00 00 80 c5 1e ac 3f 00 00 00 e0 15 a9 aa 3f
       0.05492226779460907 0.05207126960158348
0006c0 5f 86 8e 9b b5 33 b4 3f 54 8d 72 a6 9d 3d 9b 3f
       0.07891402290126724 0.026602233204028394
0006d0 61 ff eb 88 23 65 a7 3f 5e 3e e3 38 5c 6d a2 3f
       0.04569350286874286 0.035990602440162375
0006e0 00 00 00 e0 d4 90 a8 bf 00 00 00 20 b5 42 ad 3f
       -0.04797997698187828 0.05714956298470497
0006f0 00 00 00 a0 e8 5d a9 bf 00 00 00 c0 21 b8 a6 bf
       -0.04954459145665169 -0.044373564422130585
000700 93 af dc 2c d5 7c b5 3f 78 87 93 ef 44 9d 68 bf
       0.08393604607834808 -0.0030046793368549395
000710 1b d3 0d e8 48 cc a9 bf dd dc 41 24 62 83 b1 3f
       -0.05038669426622829 0.06841100106418048
000720 05 5f ed 73 26 63 c3 3f 6e 52 a2 05 7c e4 c0 3f
       0.1514633241702016 0.13197279238797271
000730 31 b6 09 74 5a ad 97 3f 6f b4 88 db 04 76 8a 3f
       0.02312222798575742 0.012920415830274671
000740 06 43 d3 8d 66 41 b5 3f 00 00 00 a0 9f 7b 8b bf
       0.08302918398409184 -0.013419386930763721
000750 00 00 00 00 3e 8a 9a bf 9b 38 be cc cd c6 81 bf
       -0.02591797709465027 -0.008679969607126295
000760 ce 25 f9 76 e0 e7 95 bf d3 6b 2c 51 60 72 99 3f
       -0.021392352353620407 0.024850373224676602
000770 fd 43 a9 a8 03 84 99 bf 20 f7 7a 45 3f 79 b8 bf
       -0.024917657059919652 -0.09560008474633408
000780 00 00 00 e0 df 7d aa bf 00 00 00 c0 19 9a 76 bf
       -0.051741596311330795 -0.005518055520951748
000790 00 00 00 40 19 18 9b 3f 00 00 00 c0 44 e4 5d bf
       0.026459116488695145 -0.001824442995712161
0007a0 00 00 00 60 d1 5a a0 bf 00 00 00 c0 a0 98 57 3f
       -0.031942885369062424 0.001440197927877307
0007b0 00 00 00 60 cb 50 ae bf 00 00 00 40 8e cb a6 bf
       -0.0592101626098156 -0.0445217564702034
0007c0 00 00 00 e0 6f 78 a5 bf 00 00 00 20 b1 8f aa 3f
       -0.04193448647856712 0.05187753215432167
0007d0 00 00 00 c0 61 6e ac 3f 00 00 00 e0 17 e9 95 bf
       0.0555296465754509 -0.021396992728114128
0007e0 f4 41 86 66 53 90 73 bf 05 5a fe 30 c9 54 a8 3f
       -0.004776311667584288 0.04752186511102611
0007f0 00 00 00 20 6d ea 7e 3f 00 00 00 00 98 26 a0 bf
       0.007547785062342882 -0.03154444694519043

convd.0.bias f8 [32]
000000 7c 2d 7f bd a1 eb 6e 3f c5 b3 d0 82 28 17 8d 3f
       0.0037744673718173565 0.01420432709900322
000010 cb b6 ba 3a 5c a7 9d bf c0 3e 5d 81 57 88 9d bf
       -0.0289587412686874 -0.028840415259138608
000020 7c 34 01 f4 ca 93 95 bf fc a5 5c d1 87 5c a3 bf
       -0.021071597235551284 -0.037815326983331204
000030 af 45 43 19 e3 01 90 bf 4d bb a7 14 21 d1 b1 3f
       -0.01563219873134408 0.069597308676504
000040 b5 9d f9 11 8e 7f 80 3f 27 29 0a 3b 37 8f 68 3f
       0.008055791781955127 0.0029979780886765397
000050 21 50 dd a7 e2 ae 9a 3f 33 bc e2 05 49 6f a2 3f
       0.026057759757648683 0.03600528904768687
000060 31 f3 f0 dc 37 7d 85 3f 6f b0 a6 ff b2 1c 80 bf
       0.010492741041269934 -0.007867239405492136
000070 d1 08 e1 42 e0 1c 92 bf d3 54 13 9b 81 2b 9d bf
       -0.01768827827641745 -0.028486275758798762
000080 32 72 3d ae 12 d0 a6 3f ae a1 38 e0 c0 ca 9b 3f
       0.044556220788511416 0.02714063042199804
000090 00 a0 cf 1f 52 44 4e bf 9a 98 24 33 64 39 6d 3f
       -0.0009236718175289482 0.0035674054171464633
0000a0 97 2c dc b2 e7 36 71 3f 1c 37 e4 90 4c 97 74 bf
       0.004202752182901246 -0.005027102552288356
0000b0 ca 9f 89 a5 75 e1 9e bf b4 ce e1 80 7d 5f a7 3f
       -0.03015693495618147 0.04565040777461374
0000c0 4a 6a 61 cb ae 17 a8 bf 93 cd 68 70 bb 87 45 bf
       -0.04705568535492384 -0.0006570496778465655
0000d0 b6 b3 de 09 40 7a a9 bf b7 d9 7d 08 0a 07 ad 3f
       -0.04976081963045635 0.05669432977349536
0000e0 b0 1b 62 44 50 be a8 bf 18 39 5a c6 7a 38 a7 3f
       -0.04832697710758482 0.0453527800683437
0000f0 55 89 34 fa ff 4d b2 3f 34 5a 00 dd c6 90 71 bf
       0.07150268419767276 -0.00428846055003489

convd.1.weight f8 [64, 32, 6]
000000 82 06 5c 9d ce 9a a8 3f 3b f7 f6 6a 9c 0f 96 bf
       0.04805608435527821 -0.02154392626629618
000010 b4 ca af 35 01 75 93 bf 15 71 c2 26 9d 27 88 bf
       -0.019001025106215777 -0.011794307465884427
000020 2d a0 75 63 7e 4f 94 3f a8 07 43 60 a1 7d 79 3f
       0.019834494419598215 0.006223326087082905
000030 2b 13 0d 7f 3a e2 b6 bf e4 8d ce a3 49 ab a7 bf
       -0.08938947297890525 -0.04622869610400551
000040 1a f9 e2 75 e7 af b2 3f 9b b9 24 1a f5 fc 96 3f
       0.07299658420649671 0.02244933101717948
000050 4c 90 ae 95 1d 97 a6 bf 4d 51 0a 99 f2 ff 9b 3f
       -0.04412167026683331 0.027343550291861352
000060 60 2c ec 2d d0 75 a9 bf 98 27 33 11 5d 4e 7f bf
       -0.049726968389301573 -0.007643092673967809
000070 d8 de f3 75 e0 4f af bf 2f 99 9d b2 ac 79 a3 3f
       -0.061156286619675704 0.03803767853132666
000080 47 ea 44 8f 57 45 b8 3f 43 4b c9 3e ba ee b8 3f
       0.09480807540686796 0.09739269287937895
000090 27 76 0f 2f 59 bb 9b 3f b3 c3 e8 fb 24 a6 86 bf
       0.027081864831293736 -0.011059082925472063
0000a0 3d 14 19 0f fc 3c a2 3f 19 ff be 3c ca b6 ac 3f
       0.03562152561475116 0.056082076945584265
0000b0 f3 e0 b6 6e 66 a3 ac 3f 43 71 40 43 a3 dd bb 3f
       0.055934144034326304 0.10885067359817406
0000c0 bd ea 54 1d 4e 1f 72 bf 1c 9f ce 50 26 5e b7 3f
       -0.004424386153284385 0.09128035996274914
0000d0 c5 1c 68 c1 d5 ee a1 3f 74 23 9e 65 81 37 a8 bf
       0.03502529130860802 -0.047298473028667326
0000e0 75 38 be 4d a4 f4 a8 3f 6c 44 41 8f 7d 4e b7 3f
       0.04874146889697865 0.0910414194816142
0000f0 c3 bd 8e cc 43 d6 72 bf 7e cd 24 c4 12 b0 bb 3f
       -0.004598870124865542 0.10815541542688398
000100 8c ee 00 be f2 93 91 3f fe 99 da 25 56 0a b9 3f
       0.017165940138723232 0.09781397270362643
000110 a9 73 37 dc fa de 8d bf c5 d9 de e3 9f c7 97 bf
       -0.014585456700780446 -0.0232224448042986
000120 c9 84 48 56 6a 48 a5 bf 1b 6a 26 40 c8 6c 7f bf
       -0.041568110497118456 -0.007672102192737752
000130 e8 41 36 30 9a dc a1 3f f0 d1 53 4e 2f b1 b4 3f
       0.03488618696713158 0.08082862531939106
000140 be 3b 82 53 95 34 a3 3f a9 c6 62 da fd e2 8e 3f
       0.03751055378335576 0.01508138964377122
000150 fd 75 eb 48 04 45 77 bf 6c 56 03 e4 55 ad ab 3f
       -0.005681053865115524 0.05405681999552034
000160 fc 63 ae 4f dc 66 81 bf 97 80 1a df 71 ef af 3f
       -0.008496972257306716 0.06237369392806718
000170 04 86 1a 3b 3d d0 a1 3f 3f 6e b4 8c 1e 83 a4 bf
       0.03479186388473113 -0.040062861133460796
000180 9e 1a c2 e5 8e c9 82 bf 4e 68 5f 93 0e 31 a8 3f
       -0.009173504244484317 0.04724927472098327
000190 6a 8c dc be d1 fe b0 3f 3a c0 91 94 3b 4b a6 bf
       0.06638823423104304 -0.04354273022261208
0001a0 aa d7 f2 14 50 5a b4 3f 37 1b 19 47 b1 c2 a1 3f
       0.07950306426468381 0.03468851082703
0001b0 80 b0 54 9f 82 50 86 bf fb f0 63 ca 4e 5f ac 3f
       -0.010895748603239719 0.055414640622958054
0001c0 f2 0d af e6 4b 59 71 bf 63 09 ef 94 2b a5 b8 3f
       -0.004235550392823738 0.09627029787137568
0001d0 bd 6b 98 b7 e5 37 ad 3f 68 6e df 9a 62 b4 b6 3f
       0.057067087804362406 0.08868995934556667
0001e0 ba 66 a6 89 8a 3a 7f bf 22 ab 72 de 9c f4 94 3f
       -0.007624188578483954 0.02046437366213206
0001f0 93 f1 b0 b7 d7 64 b3 3f 4b ff ea db 69 6f 95 bf
       0.07575748667381381 -0.020932821319319655
000200 97 20 e8 5c 88 03 97 bf 0b 69 0d b5 f1 67 ab bf
       -0.02247441355760368 -0.053527406073685745
000210 45 1c 90 40 44 d2 70 3f bd 43 69 2b 03 bc a0 3f
       0.004106775865699912 0.0326844206325698
000220 6e a5 d8 3e 8f 90 96 3f fc bb 42 19 2f 09 9c bf
       0.022035825930435342 -0.027378784100331885
000230 29 bc 63 1b ca 27 b5 3f 2c fa 05 ff 7d 85 b1 3f
       0.08263838928881796 0.06844317890315982
000240 c5 25 ac ee d0 af 97 bf e9 62 dc 66 35 ff 97 bf
       -0.02313162285557781 -0.02343448105156912
000250 aa 4a 6a 9a b4 66 a7 bf dd 8d 49 ee 6f 46 8f 3f
       -0.045705455636512696 0.015271067103816921
000260 f6 aa 2b 2a 7e c8 8e bf 5b 88 20 7e 41 10 7e 3f
       -0.015030847227043048 0.007339721518322485
000270 3e 70 aa 3c 7e f8 a6 bf 93 ec 86 d5 3c ed 46 3f
       -0.04486460199879659 0.0006996676484542101
000280 53 ba 69 4d d7 0a af bf be 77 19 0f 59 2e b5 3f
       -0.060629585456685085 0.08273846262588244
000290 d9 5c fe 32 28 0e b5 3f 64 69 93 9a 13 5c af 3f
       0.08224726910553971 0.061249363535995
0002a0 e0 90 cf 2a ac a8 a1 3f bd 17 2f f7 19 f3 7b 3f
       0.03448999426453425 0.006823636463144153
0002b0 d3 c7 48 bf 4e 65 b0 3f b3 83 e9 0b 83 02 a3 3f
       0.06404583139445146 0.037128539280053906
0002c0 05 a7 41 48 be 5c 75 bf 75 f2 df 0b 25 2f 98 bf
       -0.005215400018735887 -0.023617342805652492
0002d0 26 8c d1 98 7b 52 a8 3f 43 ac 98 2e 2a 3c 5d bf
       0.047504293827636254 -0.001784363931060865
0002e0 33 69 75 05 2f 26 9f bf 31 6e 8b d4 fd 06 aa 3f
       -0.03041909666840432 0.050834591098205435
0002f0 47 21 d3 69 22 cc a0 3f 93 0e 17 8e 19 0f a5 bf
       0.03280742208295578 -0.04113082751748922
000300 7e 1f a7 c3 44 50 95 bf de d8 0f 73 68 ce b4 3f
       -0.020814012948704434 0.08127453621986855
000310 94 ad 25 b9 8c 19 90 bf 48 00 71 21 b3 89 b0 3f
       -0.015722464371192027 0.06460113111916244
000320 93 3f 73 85 56 39 ab 3f be 0b 85 52 02 86 af bf
       0.05317182902365327 -0.06156928307839092
000330 6d bd fe e5 d3 8f 91 bf f0 fa e5 c8 72 94 a4 3f
       -0.017150221741471783 0.04019507124302446
000340 94 36 f0 aa 53 c1 a6 3f 29 5b 5e 68 86 9a 91 3f
       0.044443716637130454 0.017191028709557053
000350 32 5c 1a 0c e9 d0 a7 3f 8e ea d9 be 08 e4 a6 3f
       0.0465157344125874 0.04470851258971208
000360 82 61 92 d1 d3 f5 a5 3f 66 aa 9d b5 c9 50 9b bf
       0.04289113934754864 -0.0266753689860856
000370 0c dd 5a a4 b1 70 a0 3f f8 84 18 dd 43 fe ac bf
       0.03210978633199532 -0.056627388705473736
000380 48 09 5e 31 76 9d 82 bf f0 7d cc c3 77 64 85 bf
       -0.009089396840640376 -0.010445533430867265
000390 a4 7d 23 fd 6e db 9e bf ab eb e8 ae 96 32 8e bf
       -0.03013394756351108 -0.014744927609276667
0003a0 f0 3b 2d 1b 43 bf b8 3f 7d 97 53 98 d2 3b a9 bf
       0.09666842854970503 -0.04928453549818721
0003b0 8f a9 32 01 39 d3 69 bf c4 40 e2 58 69 b4 a1 3f
       -0.0031524766323702334 0.03457955560691198
0003c0 3c 3c e9 0a bb 73 ae 3f 2a 89 2b dc be a9 b0 3f
       0.0594767046755966 0.065090111496407
0003d0 28 a8 f6 24 07 da a2 bf ce b3 98 a8 8a b6 b0 3f
       -0.03681967092718735 0.06528536430478413
0003e0 a0 d5 df 46 3a 68 90 3f aa ab 67 d5 f4 7c ab bf
       0.016022596908404574 -0.05368771653214506
0003f0 32 e7 df ad be 9a a9 3f d4 e0 cd 4b 10 bf a6 3f
       0.05000873444073618 0.04442645001739867
000400 4c 72 f6 7c 6f 6f b9 3f 6c a8 38 20 cb d8 b0 3f
       0.09935662079664914 0.06580800568250006
000410 b3 57 41 3f d3 89 b3 3f 02 a3 30 8e 1c f9 a2 3f
       0.07632179540936938 0.03705682025640124
000420 76 f3 95 1f a4 a1 ae 3f 68 9b 8d f0 24 7b 8e bf
       0.05982697377746764 -0.014883316603755595
000430 3b a4 bb d1 05 93 b4 bf ea 06 ef 3f a6 cf ad 3f
       -0.08036838884767487 0.05822486429634728
000440 1c ea 97 9a b6 ef 91 3f 9d 9e c9 a1 07 87 b2 3f
       0.017515996156342792 0.0723728914250565
000450 ea 8d 38 14 90 b8 b3 3f cf b4 9e c2 03 0d 93 3f
       0.07703495496439641 0.018604334596308555
000460 84 53 4e 9d 65 a6 93 bf c4 c5 11 46 42 2a 8e bf
       -0.019189441419786415 -0.014729039920186156
000470 b3 ed f5 5d 17 af 69 3f 48 e1 79 0b 8f 46 ad bf
       0.003135247839677746 -0.05717894568528209
000480 5e a4 72 3f cb cd ae 3f ac 74 b3 74 d0 07 b6 3f
       0.0601638331366494 0.0860567364611195
000490 8f 60 b4 73 a9 50 a4 bf 52 4f 5a 3a 2a 9e b3 3f
       -0.039677901624771576 0.07663215565326922
0004a0 01 ef 5b 71 ed ac 91 3f bc b4 1f ab de 01 b8 3f
       0.017261228603259408 0.09377853086307913
0004b0 f2 24 44 49 c8 96 8a bf 46 a5 11 77 b8 91 78 3f
       -0.012982907043367995 0.005998344961974772
0004c0 96 5c c1 49 6f 7b a1 3f c0 9c 98 5d ac 21 9d bf
       0.03414485717137798 -0.028448765957503452
0004d0 6c 09 2c 2a af 0d b9 3f 78 e3 c4 39 9b e6 90 3f
       0.09786505488958647 0.01650469341368274
0004e0 10 55 da fd da 15 ac bf 0e c7 d9 d5 13 b9 81 bf
       -0.054854243743799214 -0.008653788531975983
0004f0 2f 87 cc c8 2b ae 94 3f e4 90 5d e7 f2 9c b5 3f
       0.020195659762186565 0.08442609928676209
000500 c4 dd fa 19 70 d3 a1 3f 66 64 c3 8e 3f 99 a8 3f
       0.03481626813066499 0.04804419152942145
000510 2d 9d 09 b9 29 8b ae 3f b6 46 be fc 5b 56 5c 3f
       0.05965547927626811 0.0017295740426316714
000520 e4 5b 0c 0c a2 fe 83 3f f9 8c 81 cc 12 5e b7 3f
       0.009763017647442092 0.09127919667075791
000530 9d 93 f8 89 63 b7 74 3f a8 0e e1 08 97 02 b1 3f
       0.005057705711384222 0.06644576994681961
000540 a1 38 a4 80 3c 67 a6 bf 94 f9 2c 54 a5 de 87 3f
       -0.043756380751902364 0.011655131942117682
000550 ec 91 68 38 74 ae b7 3f 65 c9 ff 4c 75 5b b3 bf
       0.09250570656929086 -0.07561429147589178
000560 8a ad 10 8a b7 09 b0 bf 3a c5 68 96 7e 8e 99 3f
       -0.06264826889735367 0.024957635813000346
000570 85 fc 59 bb 97 d3 92 bf aa c4 80 91 d3 34 b7 3f
       -0.018385287103680276 0.09064981748885495
000580 f0 3b 74 8c 7e 1a 72 3f a6 17 5c 2b 42 33 b0 3f
       0.004419798212679446 0.06328214224421788
000590 1e ca c0 18 a6 b9 b5 bf 95 48 ef 14 70 f6 a0 bf
       -0.08486402611087171 -0.03313017135191491
0005a0 be b1 6f 1b f4 51 68 3f 85 b1 8e 19 5a 3d 72 bf
       0.002968765994856264 -0.004453041031336706
0005b0 06 2c e1 0a d9 91 b2 bf 40 e2 35 99 94 54 91 3f
       -0.0725379611550779 0.016924211360193064
0005c0 19 cd 78 58 ff 0a 9d 3f 2a eb f2 08 b6 33 bc bf
       0.028362264418501846 -0.11016404837111496
0005d0 ef 2f 8d a3 4f 86 8f bf 49 fb b1 70 7c 14 a0 3f
       -0.015392896822639527 0.03140629649805377
0005e0 5d f7 d2 6a 0b 07 ab 3f 36 79 09 7d 02 6b 64 bf
       0.05278812102322548 -0.002492432460981987
0005f0 39 69 6b 4b 91 e6 a2 3f b6 cc 5e b9 11 cf a2 3f
       0.03691534085892773 0.03673606288739377
000600 b3 22 2c 8e 78 74 a2 3f c1 58 1d b6 6c 1c a5 bf
       0.036044852595357744 -0.041232487898626775
000610 89 eb 47 cd 8d f0 97 bf f2 32 fe b5 7c d0 aa bf
       -0.023378577856401548 -0.05237188073724565
000620 f6 a7 da 09 4d de 94 3f fe 8c e0 49 88 f3 b4 3f
       0.020379260755966265 0.08184100917474166
000630 30 74 e3 5b 8b a0 73 3f e1 86 3d 36 1e 2d b5 bf
       0.004791778918130027 -0.08271969627596888
000640 c2 d7 4f e7 3b e6 a9 3f 3b c6 1d 9a b6 1b ba bf
       0.05058467100745602 -0.10198537123303535
000650 6d 35 8c 92 9d 11 7a bf 95 77 0e fd b6 22 a9 3f
       -0.00636445571650533 0.049092977896392366
000660 ca 5d e0 66 8c ba b2 3f 8a f1 29 ea fc 41 ae 3f
       0.07315900336867923 0.05909719809003196
000670 84 13 bf 0f f0 4a 98 3f 34 65 15 12 d6 d9 7a bf
       0.023723364792903393 -0.006555401051934685
000680 b8 1a 0f 9a d1 5b b5 3f 02 83 45 1e af 46 65 bf
       0.08343229304510202 -0.0025971813467297053
000690 15 af f6 66 98 f3 a0 bf 13 a5 7d da 17 1c 72 3f
       -0.03310848481063836 0.004421322991995841
0006a0 7a 9d 81 91 d0 30 b3 3f 9c 1c 73 ab 14 b3 a7 3f
       0.0749636035194409 0.0462881526269083
0006b0 8a 20 b1 ee ad 6e ad 3f b1 ff 78 52 c0 68 b2 3f
       0.05748504198760525 0.07191087735645742
0006c0 ca 5a c6 15 2c a3 ad 3f ca a6 d0 fe 31 d6 96 3f
       0.057885530145701816 0.022301465203929983
0006d0 43 86 5b 93 57 22 a6 3f ee 48 f1 12 6c 60 b2 bf
       0.043230759370783044 -0.07178378546203465
0006e0 23 0d 3d 05 9b e6 b6 3f 65 59 4b ea e4 2c b8 3f
       0.08945626142399425 0.0944350311286591
0006f0 e8 c4 86 14 23 3b ad 3f 09 38 b3 69 bc 95 aa 3f
       0.05709180474821968 0.05192364492687324
000700 f5 e7 97 6f 21 8a b8 3f d6 c5 b9 d4 2f 1d 82 bf
       0.09585770582626181 -0.008844731978771597
000710 89 2e 83 5f c4 15 a0 3f 56 e2 c8 cf 77 17 aa 3f
       0.03141606965945438 0.05096029673990603
000720 a4 62 aa d7 31 43 94 3f f9 8b e1 f5 0b 22 97 bf
       0.019787577427083605 -0.022590815431964704
000730 9a d0 d7 c9 9f 37 90 3f 20 80 41 a0 a9 f5 af 3f
       0.015837189383049656 0.062421131908877436
000740 92 7d 31 60 11 98 ae bf 96 ad 12 3e 27 4d 97 bf
       -0.059753935806607164 -0.022755253947861563
000750 5a 4e e4 76 9e 52 9c 3f 08 3d 1d 99 c2 a1 a8 3f
       0.027658916479664654 0.04810913199491479
000760 4e 89 1b 08 d4 4a b8 3f 40 8c 63 c0 32 9a b5 3f
       0.0948917884630067 0.0843841285418856
000770 33 63 49 22 72 4f 89 3f 64 1a b6 88 3f 2c b0 bf
       0.012358562156053665 -0.06317517364196018
000780 db 00 c5 fe c0 f6 a3 bf 48 ac 04 af c6 4c a1 3f
       -0.03899195775966443 0.033788880219014106
000790 81 fa 29 af 1d 95 a0 3f e3 6c dc 1e 8e 80 a3 3f
       0.03238766444427644 0.038090173022476546
0007a0 81 41 3d 8f 63 69 a8 bf 59 e7 24 f1 71 40 86 bf
       -0.0476790535309446 -0.010865106746326058
0007b0 11 de 19 47 1b fa 8f bf 13 89 a2 56 d0 5b b0 3f
       -0.015613759143191993 0.06390096774206126
0007c0 12 fc 29 31 61 a5 a3 bf 50 ff 82 38 07 97 97 3f
       -0.038371121646371034 0.023037064384652084
0007d0 f3 0b 13 aa ae 75 b6 3f 70 2c 63 45 4c ee a4 3f
       0.08773318912703569 0.040880568952695095
0007e0 16 b0 b2 61 ff 0a a6 bf e3 8e ac a7 eb f0 85 bf
       -0.0430526549110654 -0.010713425688272554
0007f0 6c be 80 f3 11 a3 a0 3f 38 31 0f 56 2c aa b9 3f
       0.03249412629554346 0.10025288678224775

convd.1.bias f8 [64]
000000 6d c7 8f 3f b3 ed b2 3f cf 3e e2 27 51 54 8a bf
       0.07393951703832409 -0.012856134442955107
000010 59 53 c8 38 87 e9 9b 3f 41 b0 78 97 3e 15 80 bf
       0.02725802692482957 -0.007853020665685164
000020 fd 13 2e 9a b4 7a 8a 3f 41 97 b7 0f 5b bd 74 3f
       0.012929354624938933 0.0050633961759326005
000030 75 2c 64 6b c9 8e b1 bf eb 69 4a 62 e2 d8 79 3f
       -0.06858500358446114 0.006310352623268826
000040 58 4b aa 0b 78 f0 b3 bf c4 ce be d3 e7 4f ae bf
       -0.0778880146483919 -0.0592033811548425
000050 b7 f9 d6 ca 5d a4 ab bf 8b bf 37 43 fb de 9d 3f
       -0.05398839093276158 0.029170919397017363
000060 ba 25 3f e9 49 52 b0 bf cd 12 25 3c bb 5b aa bf
       -0.06375562614916577 -0.05148110493840861
000070 f9 fa ae e8 fe 1e 85 bf a6 f5 d7 c0 3e 5b a9 bf
       -0.010313025928437624 -0.04952427009628062
000080 40 2d 73 c5 9b a4 b5 bf 06 e8 ab 27 16 95 ab bf
       -0.08454297609857964 -0.053871815054620284
000090 27 bc 11 01 9f 9f ab 3f 57 13 80 1b 58 03 b6 bf
       0.053952187424208646 -0.08598852797883914
0000a0 9f 92 bc 66 09 3a 98 3f 58 c6 94 83 b1 f5 9d 3f
       0.023658892531914884 0.029257558494640484
0000b0 65 9b 3c 7a b6 e6 a0 3f 91 aa 4f 50 f9 fc 8a 3f
       0.0330101989950922 0.013177821887400827
0000c0 61 68 de 01 c3 aa 8a 3f 10 1f 75 1e 43 29 88 3f
       0.013021014685183187 0.011797451369275375
0000d0 63 17 97 b5 a2 1b 69 bf be cf 64 0d 62 90 83 bf
       -0.0030649354855282625 -0.009552732499834234
0000e0 b3 4c 71 8d 7b b8 8c 3f a4 0b 82 ad 11 b6 9b 3f
       0.01402374768637169 0.0270617258215783
0000f0 52 15 5a 2a 3f fb aa 3f 1a 1a 3f c8 ca e9 a5 3f
       0.052698110504062826 0.04279931730666338
000100 3a 82 e9 fb f3 ed 70 3f 69 0c 3d 41 10 91 b7 bf
       0.0041331797243349625 -0.09205724327789401
000110 fa 46 05 99 2a fe 9d bf 75 e7 50 e1 f4 8f 98 bf
       -0.02928988036121092 -0.02398665070743485
000120 4c 3a de 1a 48 ba 77 bf 3f a0 8d 91 8d d6 96 bf
       -0.005792886409735031 -0.02230282975088493
000130 0a 60 24 5e fd 5a a5 bf 73 be d2 cb 0c 61 4b 3f
       -0.04170982145495834 0.0008355438691491482
000140 86 af ce 5e 80 c2 ad bf b5 68 2a a5 f7 21 ac 3f
       -0.05812455327335812 0.0549466504209745
000150 38 3a 73 0b 96 5d b0 bf ec 63 6f 96 24 f0 6c bf
       -0.06392801074546461 -0.0035324778177536677
000160 da 38 45 f2 54 56 b0 3f 11 96 a1 79 66 7b 94 3f
       0.06381731905750901 0.020001984761981065
000170 be 1c 8c 35 7f 05 51 bf 97 26 b9 8c 10 00 b3 bf
       -0.001038908221916476 -0.07421973643900014
000180 ba cb a2 82 ba 27 b3 3f ee 31 78 3a 1f 30 a2 bf
       0.07482495965341132 -0.03552339161624106
000190 48 79 a5 ae 7b 87 a0 bf ae b2 a9 f4 a4 1a 85 3f
       -0.032283654278887186 0.010304726330298077
0001a0 b5 56 a0 cf 7b ea 5a bf 7f 37 6b a4 54 d7 a3 3f
       -0.0016428193180266064 0.03875221736016864
0001b0 2d c9 b4 70 2a ff a9 bf 23 6a 59 1f 8e f9 64 bf
       -0.05077488542373696 -0.0025604034260997706
0001c0 29 40 61 80 69 8e b0 bf 82 cd 4b e0 8c 54 52 3f
       -0.06467303642534773 0.0011187911742894523
0001d0 c6 49 55 ab 02 9d a2 bf bb 0b 55 e6 2b 66 b1 bf
       -0.03635414449185563 -0.0679652631124971
0001e0 c6 87 2c d5 56 53 aa bf 04 68 19 28 52 3a a4 3f
       -0.051417077562532706 0.03950745334141462
0001f0 1c 27 80 71 a4 8f 8a 3f 40 b7 81 75 af d5 85 bf
       0.012969288553012208 -0.010661478780288669

fcd.weight f4 [128, 64]
000000 a8 31 91 bd 44 bc ce bd 46 58 9e bd ea 88 07 3d
       -0.07089549 -0.100945026 -0.077316806 0.033089556
000010 fe be d1 bc 2e be 3b bd c6 8f 35 3d c1 71 ab bd
       -0.025603767 -0.045835666 0.044326566 -0.08371306
000020 c6 d4 ee 3d 84 23 e1 bc 23 83 b7 3d d3 75 1f be
       0.11661677 -0.027482755 0.08960559 -0.1557229
000030 31 ea 36 bd 45 8c 59 bd 76 29 24 be c8 fa 61 bd
       -0.044656936 -0.053112287 -0.16031441 -0.055170804
000040 42 11 4d 3d cb c7 7e 3d d4 a6 c0 3d 34 b2 24 3c
       0.050065286 0.062202256 0.0940682 0.010052253
000050 e7 27 11 be 94 0a 90 3d 6e f6 7d bd ca 7a a1 bd
       -0.14175378 0.070332676 -0.06200259 -0.07884748
000060 97 cf 7d 3d 9a 65 a3 bd 7c ac 14 be 66 96 a9 bc
       0.06196555 -0.07978363 -0.14518923 -0.020701598
000070 23 06 92 3d 1f d3 b2 3d 98 7f 1f bd c5 8d a6 bd
       0.07130077 0.087316744 -0.038940042 -0.08132509
000080 d6 93 aa bd 79 a6 42 be 9e af 08 3d c2 cf 2d be
       -0.08328979 -0.19008817 0.033370607 -0.16973785
000090 ee 16 1a 3d 00 ce 55 be 08 47 bd 3d df f5 07 3d
       0.037619524 -0.20879364 0.09242064 0.033193465
0000a0 59 28 0c 3d 6c 9e 93 bd 93 2e f8 bd 24 22 9f 3d
       0.034218166 -0.07207951 -0.12118258 0.07770184
0000b0 4d 01 18 bd a1 c8 94 bd 8b 9f 99 bd 24 2b ba 3b
       -0.037110616 -0.072648294 -0.075011335 0.0056814123
0000c0 6a 64 32 bd 08 22 0b be c0 5f 06 be 59 2a 0e be
       -0.043552794 -0.135872 -0.13122463 -0.13883342
0000d0 46 a6 3d bd 98 fc 31 bd 44 aa 15 be aa 6b cb bd
       -0.04630115 -0.043453783 -0.14615732 -0.09932645
0000e0 d2 8a c2 bd 4e 50 fa bc 34 42 22 3d ab 26 65 3b
       -0.09499134 -0.03055587 0.039613917 0.0034965675
0000f0 f1 6c d2 3d 10 2e 87 bd ba c1 a5 bd 4e c6 b3 bd
       0.10274685 -0.066005826 -0.08093591 -0.08778058
000100 79 d2 8c 3c 1b eb 2b bc d9 b6 f6 bd bf 21 06 bd
       0.017190205 -0.010493065 -0.12046594 -0.032747027
000110 75 99 ed bd be 80 4f bd 11 43 44 3c e0 66 c0 bd
       -0.11601535 -0.050659887 0.0119788805 -0.09394622
000120 71 04 db bd b7 b4 06 be 87 b2 0a be 35 f1 32 bd
       -0.106942065 -0.13154875 -0.13544665 -0.043687064
000130 10 d4 b2 3d 9e ae d5 3d f6 9e 30 bd 7f e3 b4 bc
       0.08731854 0.10433696 -0.043120347 -0.022081135
000140 73 93 ac bc f0 4d c0 3d 16 62 a3 bd 75 1d 85 bd
       -0.021066403 0.093898654 -0.07977693 -0.06499759
000150 4b 54 89 bd e3 14 a2 bd 7f 9f 95 3c 8d 18 06 be
       -0.06705531 -0.0791414 0.01826453 -0.13095303
000160 84 4a 4b bd 46 b4 12 3d 9e 8d b1 3d d0 89 db bd
       -0.04963161 0.035816453 0.086695895 -0.10719645
000170 77 60 c1 ba c8 e0 f0 bd 26 80 f4 3d 33 9b f1 bd
       -0.001475348 -0.117616236 0.11938505 -0.1179718
000180 04 26 dd bd 34 02 df bc cf e1 12 3d b6 a3 24 be
       -0.107982665 -0.02722273 0.03585988 -0.16078076
000190 73 8f 21 3d e3 ae c0 bd 12 4f d0 bc 9f 49 fb bd
       0.039443444 -0.09408357 -0.025428329 -0.122699015
0001a0 76 bc e4 bd 91 09 dd 3d 53 a9 43 be fc 2c a4 3d
       -0.111687586 0.1079284 -0.19107561 0.080163926
0001b0 83 49 a5 3d ac a0 d6 bc 96 c2 b7 3d 33 e0 b6 3c
       0.08070662 -0.026199661 0.08972661 0.022323703
0001c0 bf 50 b2 bd 88 e2 1d 3d 8d 7a 1a bd 16 8a 78 bd
       -0.08706807 0.038546115 -0.03771453 -0.060678564
0001d0 28 26 a2 3d d9 ee da bd 33 c3 58 bc dc 13 b7 3d
       0.07917434 -0.10690088 -0.013230133 0.08939335
0001e0 78 33 55 3c 13 92 74 bd e1 74 cd bd ec f8 7b bc
       0.013012759 -0.05970962 -0.100320585 -0.015379172
0001f0 77 b8 64 3d 42 ec e8 3d 18 02 29 bb 6b 42 94 bd
       0.055839982 0.113731876 -0.0025788601 -0.07239231
000200 b1 ad df bc a3 05 aa bb d9 b4 ad 3d d7 97 67 3d
       -0.027304502 -0.00518866 0.084817596 0.05654129
000210 a4 24 cc 3d 2b d9 b0 3d 62 42 02 3d 41 51 83 bd
       0.09967926 0.086351715 0.03180159 -0.06411982
000220 e7 b7 ae bd 78 39 97 3d 6d 15 b1 bd b1 4f 63 bd
       -0.0853117 0.07384008 -0.08646665 -0.05549592
000230 a5 27 db 3d c1 6f 97 3d 4f 81 d7 bc b5 55 ba bc
       0.10700921 0.07394362 -0.026306776 -0.022745946
000240 cd ff 67 3d 73 5a 91 3d c1 8c 2c bd a5 a3 b5 bd
       0.056640435 0.0709733 -0.04212642 -0.08869103
000250 9f 81 18 3e 16 3b a0 bd fa 57 22 3c ae cf 12 3e
       0.14893197 -0.0782377 0.009908671 0.14337036
000260 6d e2 22 bc e3 14 b2 bc 42 c8 14 3e 9c ce 8a bd
       -0.009941679 -0.021738475 0.14529517 -0.06777689
000270 4f 14 a6 bc 1c 2f 08 3e 6b 6e 7f bd 72 7b e4 3d
       -0.020273356 0.13299221 -0.062361162 0.11156358
000280 48 b3 68 3c 2f 38 58 3d 1c 2f a4 bd 8e 67 b1 3c
       0.0142029 0.052787956 -0.08016798 0.021655824
000290 c2 a6 8d bd a9 30 87 3c fb 94 a8 3d 72 b3 6d 3b
       -0.06916572 0.016502695 0.08231541 0.0036270288
0002a0 b9 ef 56 bd 44 4e 93 bd 1b e1 00 bd 45 c9 63 3d
       -0.05247471 -0.07192662 -0.031464677 0.055611867
0002b0 db 51 89 3d 84 24 12 3d 4b 2c 49 bc 29 97 69 3d
       0.06705066 0.035679355 -0.012278627 0.057028923
0002c0 ce b0 fc 3d 4f b3 16 bd cc f6 a6 bd dc a0 13 3d
       0.1233841 -0.036792096 -0.081525415 0.03604208
0002d0 48 6e 81 bd a8 8b 89 3d 23 11 17 3e 14 b8 f0 3d
       -0.063198626 0.067160904 0.14752631 0.1175386
0002e0 4d c0 22 3b 5c df fa 3d 2e 33 9a bd 9e 0b e3 3c
       0.0024833858 0.12249634 -0.07529293 0.0277155
0002f0 08 8b 6b 3c 3c e9 be bd d6 6d f5 3d e0 e9 0a 3e
       0.014376409 -0.0932183 0.1198384 0.13565779
000300 35 c0 04 be 05 c7 b0 3d d6 7d 10 be 46 b4 cf 3c
       -0.12963946 0.0863171 -0.14110503 0.025354516
000310 17 23 1d bd 8d 9e c4 3c 2a bb 5b 3d f1 1f 01 be
       -0.038363542 0.024001384 0.05364529 -0.12609841
000320 9d 97 e8 3c 2f 34 7c be eb 0d ae 3d 30 9f 22 3d
       0.028392607 -0.24629281 0.084987484 0.039702594
000330 61 d9 05 be d6 ea 0c be 35 c3 fa 3c 14 88 0b bd
       -0.13071205 -0.13761458 0.03061066 -0.03406532
000340 65 67 a4 3d d1 46 17 3a b9 d5 b7 3c 50 da c3 3b
       0.080275334 0.00057707453 0.022440778 0.0059769526
000350 eb d0 56 3c 8a 8c 8d 3d ad 31 4a 3d 03 4e fc bd
       0.013111333 0.06911571 0.04936378 -0.12319567
000360 50 41 a1 bc 54 89 20 be 02 1f e0 bc e7 94 aa bd
       -0.019684464 -0.15677387 -0.027358536 -0.08329182
000370 c9 9a f1 bd 38 d9 2f bd a5 8e 80 bc 0f 1c 7b bd
       -0.11797101 -0.042931765 -0.015693018 -0.061306056
000380 c6 c6 32 bc 1b 59 3e bd b7 02 e8 3d b4 62 7f bd
       -0.010911649 -0.046471696 0.11328643 -0.06234999
000390 e3 28 a1 bd ac 8a 2f be 54 31 00 bc 08 48 f0 bd
       -0.07869127 -0.17142743 -0.007824261 -0.11732489
0003a0 46 2e c5 bd 04 c6 22 bb 59 42 e3 bd 14 0a 88 3d
       -0.096279666 -0.0024837265 -0.11096639 0.06642547
0003b0 c7 81 ee bd 27 6b 89 bd 1e 90 9d 3d c4 41 c7 bd
       -0.11645847 -0.06709891 0.07693504 -0.09729341
0003c0 09 34 45 bd 5b 2d 9b ba 26 2c 1f bd 18 34 e4 3c
       -0.048145328 -0.0011839079 -0.038860463 0.027856871
0003d0 df a7 d5 3c ea ba 11 be 15 fe 41 3d 44 25 94 3d
       0.026081024 -0.14231458 0.047361452 0.0723367
0003e0 25 bc 3a 3d 74 7e 6f bb 94 44 b5 3d fd 6a 10 bc
       0.045589585 -0.0036543878 0.08850971 -0.0088145705
0003f0 d7 79 ca 3d fe 62 10 bd 22 97 b5 bd 89 f1 a3 bd
       0.0988652 -0.035250656 -0.08866717 -0.080050536

fcd.bias f4 [128]
000000 71 c0 ce bd 04 7c bd 3b b3 94 f7 3d a3 81 8e bc
       -0.10095299 0.005782606 0.12088909 -0.0173958
000010 92 8c ea bd 54 4a ee bd 80 63 51 3d 26 1e ef bd
       -0.11452593 -0.11635271 0.05112028 -0.11675672
000020 76 45 60 bd 5e 7b 87 3d 9e eb 60 bd 19 f0 b6 bd
       -0.054753743 0.06615327 -0.054912202 -0.08932514
000030 5c 84 61 3d 55 bb 69 3c 91 3f 56 3d d4 d0 37 3d
       0.05505787 0.014265855 0.052306715 0.04487689
000040 ce 11 7e 3d a1 13 c3 3d 22 56 c8 3d 1a 33 04 bd
       0.0620287 0.09525228 0.097820535 -0.032275297
000050 92 7f 01 be 91 cc be bd b5 24 65 3a 5f 58 6c bd
       -0.1264632 -0.09316362 0.00087411265 -0.057701465
000060 f9 4f f1 bd 29 e0 87 bd 50 74 2c 3e ae 43 10 bd
       -0.11782832 -0.06634552 0.16841245 -0.035220794
000070 75 e9 9a bc e6 fc cb bd 10 01 f9 3d 73 43 ce 3d
       -0.01891015 -0.09960346 0.12158406 0.10071459
000080 6a ed 2c 3e a6 f2 3e 3c a2 9b ee bd 04 9f 98 bd
       0.16887441 0.011654532 -0.11650778 -0.07452205
000090 34 2c 39 bc d8 8c 3e bd 8a 2a 99 3d 11 85 b1 3c
       -0.011302043 -0.046521038 0.07478817 0.021669896
0000a0 15 7f 32 3d 22 3a e6 3c 5c 4c b3 bb ca 2c 5f 3d
       0.043578226 0.028103892 -0.005471749 0.054486074
0000b0 fa 67 f1 3b 8d 81 0c 3d f3 2a 96 3d 1a b7 67 3d
       0.0073671313 0.034303237 0.07332411 0.056571104
0000c0 ca 22 e0 3c 13 cc 31 3c d5 67 d8 bd 27 d5 62 bd
       0.027360339 0.010851878 -0.105666794 -0.05537906
0000d0 44 91 f7 bc 7c 70 d7 bd 35 36 4e bd 85 4f 04 3d
       -0.030220635 -0.105195016 -0.050344665 0.0323024
0000e0 8a 6c a7 3d 43 64 a8 bb 2f 31 bf 3d ed bf f0 3d
       0.08174999 -0.0051389053 0.09335553 0.11755357
0000f0 2c e1 1f 3d 9d ef d4 bd 74 bc c3 3d 0f 68 bb bd
       0.0390331 -0.10397265 0.09557429 -0.09150707
000100 ba e3 c4 bd 40 ba 19 3d d7 d6 2a bd 44 54 9f 3d
       -0.09613748 0.037531137 -0.041708793 0.07779744
000110 4b 35 22 be e6 ee a0 3d d8 b6 82 bb f4 e1 a1 3d
       -0.15840642 0.07858066 -0.003989082 0.07904425
000120 1e 91 4c 3d 1e 0d 9d 3c 53 81 e1 bd 6e 1f b7 3d
       0.049943082 0.019171294 -0.11010995 0.089415416
000130 8f eb aa 3d d8 d9 b0 bd f8 7c 5a bd d7 01 0a be
       0.083457105 -0.086353004 -0.053341836 -0.13477264
000140 01 b1 81 bd d2 5d b2 bd a5 5c c7 3d 82 44 49 bd
       -0.06332589 -0.08709301 0.097344674 -0.0491376
000150 72 ce 1c be d0 b9 8b 3d 92 d4 ce 3d 7a e5 a2 3d
       -0.15313128 0.0682255 0.10099138 0.079539254
000160 7e 5c e2 bd f8 c8 83 3c bc 36 dc bc 6a 5c 6f bd
       -0.11052798 0.01608704 -0.026881568 -0.058437742
000170 7d 86 95 3d 77 53 c9 3c 77 80 cc bd d5 d6 b2 bc
       0.07301042 0.024575932 -0.0998544 -0.021830956
000180 3e 49 86 bd f7 cf 9c bd b3 79 c3 3c ab 8a 76 bd
       -0.065569386 -0.07656854 0.023861742 -0.060190838
000190 3b 12 fe 3d c3 20 32 be 88 51 da 3d 82 8d f4 bd
       0.12405821 -0.1739531 0.10660082 -0.11941053
0001a0 c0 5f 63 bc df 8f bb bd 57 32 b4 bd f3 e4 d3 bd
       -0.013877809 -0.091583006 -0.08798664 -0.10346403
0001b0 1e 13 14 3d 78 92 78 3d 11 61 9d bd f8 c3 68 bc
       0.036151044 0.06068656 -0.076845296 -0.014206879
0001c0 82 ea 81 bd 0c 89 31 3b b2 26 97 3c 86 8b 3c bc
       -0.06343557 0.0027089743 0.018451069 -0.011507874
0001d0 a8 b5 a4 bd 00 f2 fa bd f5 5e 7e bd c4 a4 98 bd
       -0.08042461 -0.12253189 -0.062102277 -0.074533015
0001e0 d4 c2 91 3d a8 29 58 3d 19 3f 42 bd 91 ed 2e bb
       0.07117239 0.0527741 -0.047423456 -0.0026691894
0001f0 9d 00 97 bd ea 87 76 bc 16 5d 30 bd bd eb 12 bd
       -0.07373164 -0.015047053 -0.043057524 -0.03586935
